…
weight_decay: 0.0005
stepsize: 3000
snapshot: 938
snapshot_prefix: "./mnist/lenet"
solver_mode: GPU
type: "SGD"
I0328 15:51:03.859359 19899 solver.cpp:77] Creating training net from train_net file: ./mnist/train.prototxt
I0328 15:51:03.859496 19899 net.cpp:51] Initializing net from parameters: 
state {
  phase: TRAIN
}
layer {
  name: "ImageData1"
  type: "ImageData"
  top: "ImageData1"
  top: "ImageData2"
  transform_param {
    scale: 0.00390625
  }
  image_data_param {
    source: "./mnist/train/train.txt"
    batch_size: 64
    root_folder: "."
  }
}
layer {
  name: "Convolution1"
  type: "Convolution"
  bottom: "ImageData1"
  top: "Convolution1"
  convolution_param {
    num_output: 20
    pad: 0
    kernel_size: 5
    stride: 1
    weight_filler {
      type: "xavier"
    }
  }
}
layer {
  name: "Pooling1"
  type: "Pooling"
  bottom: "Convolution1"
  top: "Pooling1"
  pooling_param {
    pool: MAX
    kernel_size: 2
    stride: 2
  }
}
layer {
  name: "Convolution2"
  type: "Convolution"
  bottom: "Pooling1"
  top: "Convolution2"
  convolution_param {
    num_output: 50
    pad: 0
    kernel_size: 5
    stride: 1
    weight_filler {
      type: "xavier"
    }
  }
}
layer {
  name: "Pooling2"
  type: "Pooling"
  bottom: "Convolution2"
  top: "Pooling2"
  pooling_param {
    pool: MAX
    kernel_size: 2
    stride: 2
  }
}
layer {
  name: "InnerProduct1"
  type: "InnerProduct"
  bottom: "Pooling2"
  top: "InnerProduct1"
  inner_product_param {
    num_output: 500
    weight_filler {
      type: "xavier"
    }
  }
}
layer {
  name: "ReLU1"
  type: "ReLU"
  bottom: "InnerProduct1"
  top: "InnerProduct1"
}
layer {
  name: "InnerProduct2"
  type: "InnerProduct"
  bottom: "InnerProduct1"
  top: "InnerProduct2"
  inner_product_param {
    num_output: 10
    weight_filler {
      type: "xavier"
    }
  }
}
layer {
  name: "SoftmaxWithLoss1"
  type: "SoftmaxWithLoss"
  bottom: "InnerProduct2"
  bottom: "ImageData2"
  top: "SoftmaxWithLoss1"
}
I0328 15:51:03.859539 19899 layer_factory.hpp:77] Creating layer ImageData1
I0328 15:51:03.871335 19899 net.cpp:84] Creating Layer ImageData1
I0328 15:51:03.871354 19899 net.cpp:380] ImageData1 -> ImageData1
I0328 15:51:03.871364 19899 net.cpp:380] ImageData1 -> ImageData2
I0328 15:51:03.871369 19899 image_data_layer.cpp:38] Opening file ./mnist/train/train.txt
I0328 15:51:03.906620 19899 image_data_layer.cpp:63] A total of 60000 images.
I0328 15:51:03.933950 19899 image_data_layer.cpp:90] output data size: 64,3,28,28
I0328 15:51:03.936393 19899 net.cpp:122] Setting up ImageData1
I0328 15:51:03.936411 19899 net.cpp:129] Top shape: 64 3 28 28 (150528)
I0328 15:51:03.936415 19899 net.cpp:129] Top shape: 64 (64)
I0328 15:51:03.936417 19899 net.cpp:137] Memory required for data: 602368
I0328 15:51:03.936424 19899 layer_factory.hpp:77] Creating layer Convolution1
I0328 15:51:03.936434 19899 net.cpp:84] Creating Layer Convolution1
I0328 15:51:03.936444 19899 net.cpp:406] Convolution1 <- ImageData1
I0328 15:51:03.936450 19899 net.cpp:380] Convolution1 -> Convolution1
I0328 15:51:04.365097 19899 net.cpp:122] Setting up Convolution1
I0328 15:51:04.365115 19899 net.cpp:129] Top shape: 64 20 24 24 (737280)
I0328 15:51:04.365118 19899 net.cpp:137] Memory required for data: 3551488
I0328 15:51:04.365129 19899 layer_factory.hpp:77] Creating layer Pooling1
I0328 15:51:04.365139 19899 net.cpp:84] Creating Layer Pooling1
I0328 15:51:04.365142 19899 net.cpp:406] Pooling1 <- Convolution1
I0328 15:51:04.365149 19899 net.cpp:380] Pooling1 -> Pooling1
I0328 15:51:04.365203 19899 net.cpp:122] Setting up Pooling1
I0328 15:51:04.365209 19899 net.cpp:129] Top shape: 64 20 12 12 (184320)
I0328 15:51:04.365212 19899 net.cpp:137] Memory required for data: 4288768
I0328 15:51:04.365216 19899 layer_factory.hpp:77] Creating layer Convolution2
I0328 15:51:04.365239 19899 net.cpp:84] Creating Layer Convolution2
I0328 15:51:04.365243 19899 net.cpp:406] Convolution2 <- Pooling1
I0328 15:51:04.365249 19899 net.cpp:380] Convolution2 -> Convolution2
I0328 15:51:04.367650 19899 net.cpp:122] Setting up Convolution2
I0328 15:51:04.367660 19899 net.cpp:129] Top shape: 64 50 8 8 (204800)
I0328 15:51:04.367662 19899 net.cpp:137] Memory required for data: 5107968
I0328 15:51:04.367668 19899 layer_factory.hpp:77] Creating layer Pooling2
I0328 15:51:04.367687 19899 net.cpp:84] Creating Layer Pooling2
I0328 15:51:04.367692 19899 net.cpp:406] Pooling2 <- Convolution2
I0328 15:51:04.367697 19899 net.cpp:380] Pooling2 -> Pooling2
I0328 15:51:04.367727 19899 net.cpp:122] Setting up Pooling2
I0328 15:51:04.367730 19899 net.cpp:129] Top shape: 64 50 4 4 (51200)
I0328 15:51:04.367733 19899 net.cpp:137] Memory required for data: 5312768
I0328 15:51:04.367736 19899 layer_factory.hpp:77] Creating layer InnerProduct1
I0328 15:51:04.367740 19899 net.cpp:84] Creating Layer InnerProduct1
I0328 15:51:04.367743 19899 net.cpp:406] InnerProduct1 <- Pooling2
I0328 15:51:04.367748 19899 net.cpp:380] InnerProduct1 -> InnerProduct1
I0328 15:51:04.369833 19899 net.cpp:122] Setting up InnerProduct1
I0328 15:51:04.369843 19899 net.cpp:129] Top shape: 64 500 (32000)
I0328 15:51:04.369845 19899 net.cpp:137] Memory required for data: 5440768
I0328 15:51:04.369851 19899 layer_factory.hpp:77] Creating layer ReLU1
I0328 15:51:04.369856 19899 net.cpp:84] Creating Layer ReLU1
I0328 15:51:04.369860 19899 net.cpp:406] ReLU1 <- InnerProduct1
I0328 15:51:04.369863 19899 net.cpp:367] ReLU1 -> InnerProduct1 (in-place)
I0328 15:51:04.369995 19899 net.cpp:122] Setting up ReLU1
I0328 15:51:04.370002 19899 net.cpp:129] Top shape: 64 500 (32000)
I0328 15:51:04.370004 19899 net.cpp:137] Memory required for data: 5568768
I0328 15:51:04.370007 19899 layer_factory.hpp:77] Creating layer InnerProduct2
I0328 15:51:04.370012 19899 net.cpp:84] Creating Layer InnerProduct2
I0328 15:51:04.370014 19899 net.cpp:406] InnerProduct2 <- InnerProduct1
I0328 15:51:04.370018 19899 net.cpp:380] InnerProduct2 -> InnerProduct2
I0328 15:51:04.370679 19899 net.cpp:122] Setting up InnerProduct2
I0328 15:51:04.370687 19899 net.cpp:129] Top shape: 64 10 (640)
I0328 15:51:04.370690 19899 net.cpp:137] Memory required for data: 5571328
I0328 15:51:04.370695 19899 layer_factory.hpp:77] Creating layer SoftmaxWithLoss1
I0328 15:51:04.370702 19899 net.cpp:84] Creating Layer SoftmaxWithLoss1
I0328 15:51:04.370705 19899 net.cpp:406] SoftmaxWithLoss1 <- InnerProduct2
I0328 15:51:04.370709 19899 net.cpp:406] SoftmaxWithLoss1 <- ImageData2
I0328 15:51:04.370713 19899 net.cpp:380] SoftmaxWithLoss1 -> SoftmaxWithLoss1
…
I0328 15:51:04.370950 19899 net.cpp:242] This network produces output SoftmaxWithLoss1
I0328 15:51:04.370957 19899 net.cpp:255] Network initialization done.
I0328 15:51:04.371044 19899 solver.cpp:172] Creating test net (#0) specified by test_net file: ./mnist/test.prototxt
I0328 15:51:04.371096 19899 net.cpp:51] Initializing net from parameters: 
state {
  phase: TEST
}
layer {
  name: "ImageData1"
  type: "ImageData"
  top: "ImageData1"
  top: "ImageData2"
  transform_param {
    scale: 0.00390625
  }
  image_data_param {
    source: "./mnist/test/test.txt"
    batch_size: 100
    root_folder: "."
  }
}
layer {
  name: "Convolution1"
  type: "Convolution"
  bottom: "ImageData1"
  top: "Convolution1"
  convolution_param {
    num_output: 20
    pad: 0
    kernel_size: 5
    stride: 1
    weight_filler {
      type: "xavier"
    }
  }
}
layer {
  name: "Pooling1"
  type: "Pooling"
  bottom: "Convolution1"
  top: "Pooling1"
  pooling_param {
    pool: MAX
    kernel_size: 2
    stride: 2
  }
}
layer {
  name: "Convolution2"
  type: "Convolution"
  bottom: "Pooling1"
  top: "Convolution2"
  convolution_param {
    num_output: 50
    pad: 0
    kernel_size: 5
    stride: 1
    weight_filler {
      type: "xavier"
    }
  }
}
layer {
  name: "Pooling2"
  type: "Pooling"
  bottom: "Convolution2"
  top: "Pooling2"
  pooling_param {
    pool: MAX
    kernel_size: 2
    stride: 2
  }
}
layer {
  name: "InnerProduct1"
  type: "InnerProduct"
  bottom: "Pooling2"
  top: "InnerProduct1"
  inner_product_param {
    num_output: 500
    weight_filler {
      type: "xavier"
    }
  }
}
layer {
  name: "ReLU1"
  type: "ReLU"
  bottom: "InnerProduct1"
  top: "InnerProduct1"
}
layer {
  name: "InnerProduct2"
  type: "InnerProduct"
  bottom: "InnerProduct1"
  top: "InnerProduct2"
  inner_product_param {
    num_output: 10
    weight_filler {
      type: "xavier"
    }
  }
}
layer {
  name: "SoftmaxWithLoss1"
  type: "SoftmaxWithLoss"
  bottom: "InnerProduct2"
  bottom: "ImageData2"
  top: "SoftmaxWithLoss1"
}
layer {
  name: "Accuracy1"
  type: "Accuracy"
  bottom: "InnerProduct2"
  bottom: "ImageData2"
  top: "Accuracy1"
}
I0328 15:51:04.371134 19899 layer_factory.hpp:77] Creating layer ImageData1
I0328 15:51:04.371143 19899 net.cpp:84] Creating Layer ImageData1
I0328 15:51:04.371146 19899 net.cpp:380] ImageData1 -> ImageData1
I0328 15:51:04.371152 19899 net.cpp:380] ImageData1 -> ImageData2
I0328 15:51:04.371158 19899 image_data_layer.cpp:38] Opening file ./mnist/test/test.txt
I0328 15:51:04.579037 19899 image_data_layer.cpp:63] A total of 10000 images.
I0328 15:51:04.595952 19899 image_data_layer.cpp:90] output data size: 100,3,28,28
I0328 15:51:04.598814 19899 net.cpp:122] Setting up ImageData1
I0328 15:51:04.598830 19899 net.cpp:129] Top shape: 100 3 28 28 (235200)
I0328 15:51:04.598834 19899 net.cpp:129] Top shape: 100 (100)
I0328 15:51:04.598837 19899 net.cpp:137] Memory required for data: 941200
I0328 15:51:04.598843 19899 layer_factory.hpp:77] Creating layer ImageData2_ImageData1_1_split
I0328 15:51:04.598852 19899 net.cpp:84] Creating Layer ImageData2_ImageData1_1_split
I0328 15:51:04.598856 19899 net.cpp:406] ImageData2_ImageData1_1_split <- ImageData2
I0328 15:51:04.598863 19899 net.cpp:380] ImageData2_ImageData1_1_split -> ImageData2_ImageData1_1_split_0
I0328 15:51:04.598872 19899 net.cpp:380] ImageData2_ImageData1_1_split -> ImageData2_ImageData1_1_split_1
I0328 15:51:04.598937 19899 net.cpp:122] Setting up ImageData2_ImageData1_1_split
I0328 15:51:04.598943 19899 net.cpp:129] Top shape: 100 (100)
I0328 15:51:04.598948 19899 net.cpp:129] Top shape: 100 (100)
I0328 15:51:04.598950 19899 net.cpp:137] Memory required for data: 942000
I0328 15:51:04.598953 19899 layer_factory.hpp:77] Creating layer Convolution1
I0328 15:51:04.598963 19899 net.cpp:84] Creating Layer Convolution1
I0328 15:51:04.598965 19899 net.cpp:406] Convolution1 <- ImageData1
I0328 15:51:04.598970 19899 net.cpp:380] Convolution1 -> Convolution1
I0328 15:51:04.613546 19899 net.cpp:122] Setting up Convolution1
I0328 15:51:04.613569 19899 net.cpp:129] Top shape: 100 20 24 24 (1152000)
I0328 15:51:04.613571 19899 net.cpp:137] Memory required for data: 5550000
I0328 15:51:04.613584 19899 layer_factory.hpp:77] Creating layer Pooling1
I0328 15:51:04.613593 19899 net.cpp:84] Creating Layer Pooling1
I0328 15:51:04.613597 19899 net.cpp:406] Pooling1 <- Convolution1
I0328 15:51:04.613605 19899 net.cpp:380] Pooling1 -> Pooling1
I0328 15:51:04.613656 19899 net.cpp:122] Setting up Pooling1
I0328 15:51:04.613662 19899 net.cpp:129] Top shape: 100 20 12 12 (288000)
I0328 15:51:04.613664 19899 net.cpp:137] Memory required for data: 6702000
I0328 15:51:04.613667 19899 layer_factory.hpp:77] Creating layer Convolution2
I0328 15:51:04.613677 19899 net.cpp:84] Creating Layer Convolution2
I0328 15:51:04.613680 19899 net.cpp:406] Convolution2 <- Pooling1
I0328 15:51:04.613684 19899 net.cpp:380] Convolution2 -> Convolution2
I0328 15:51:04.614982 19899 net.cpp:122] Setting up Convolution2
I0328 15:51:04.614995 19899 net.cpp:129] Top shape: 100 50 8 8 (320000)
I0328 15:51:04.615000 19899 net.cpp:137] Memory required for data: 7982000
I0328 15:51:04.615007 19899 layer_factory.hpp:77] Creating layer Pooling2
I0328 15:51:04.615012 19899 net.cpp:84] Creating Layer Pooling2
I0328 15:51:04.615016 19899 net.cpp:406] Pooling2 <- Convolution2
I0328 15:51:04.615021 19899 net.cpp:380] Pooling2 -> Pooling2
I0328 15:51:04.615058 19899 net.cpp:122] Setting up Pooling2
I0328 15:51:04.615064 19899 net.cpp:129] Top shape: 100 50 4 4 (80000)
I0328 15:51:04.615068 19899 net.cpp:137] Memory required for data: 8302000
I0328 15:51:04.615072 19899 layer_factory.hpp:77] Creating layer InnerProduct1
I0328 15:51:04.615077 19899 net.cpp:84] Creating Layer InnerProduct1
I0328 15:51:04.615079 19899 net.cpp:406] InnerProduct1 <- Pooling2
I0328 15:51:04.615084 19899 net.cpp:380] InnerProduct1 -> InnerProduct1
I0328 15:51:04.617959 19899 net.cpp:122] Setting up InnerProduct1
I0328 15:51:04.617969 19899 net.cpp:129] Top shape: 100 500 (50000)
I0328 15:51:04.617974 19899 net.cpp:137] Memory required for data: 8502000
I0328 15:51:04.617981 19899 layer_factory.hpp:77] Creating layer ReLU1
I0328 15:51:04.617987 19899 net.cpp:84] Creating Layer ReLU1
I0328 15:51:04.617990 19899 net.cpp:406] ReLU1 <- InnerProduct1
I0328 15:51:04.617996 19899 net.cpp:367] ReLU1 -> InnerProduct1 (in-place)
I0328 15:51:04.618652 19899 net.cpp:122] Setting up ReLU1
I0328 15:51:04.618664 19899 net.cpp:129] Top shape: 100 500 (50000)
I0328 15:51:04.618669 19899 net.cpp:137] Memory required for data: 8702000
I0328 15:51:04.618672 19899 layer_factory.hpp:77] Creating layer InnerProduct2
I0328 15:51:04.618681 19899 net.cpp:84] Creating Layer InnerProduct2
I0328 15:51:04.618685 19899 net.cpp:406] InnerProduct2 <- InnerProduct1
I0328 15:51:04.618691 19899 net.cpp:380] InnerProduct2 -> InnerProduct2
I0328 15:51:04.618841 19899 net.cpp:122] Setting up InnerProduct2
I0328 15:51:04.618849 19899 net.cpp:129] Top shape: 100 10 (1000)
I0328 15:51:04.618852 19899 net.cpp:137] Memory required for data: 8706000
I0328 15:51:04.618858 19899 layer_factory.hpp:77] Creating layer InnerProduct2_InnerProduct2_0_split
I0328 15:51:04.618865 19899 net.cpp:84] Creating Layer InnerProduct2_InnerProduct2_0_split
I0328 15:51:04.618870 19899 net.cpp:406] InnerProduct2_InnerProduct2_0_split <- InnerProduct2
I0328 15:51:04.618875 19899 net.cpp:380] InnerProduct2_InnerProduct2_0_split -> InnerProduct2_InnerProduct2_0_split_0
I0328 15:51:04.618881 19899 net.cpp:380] InnerProduct2_InnerProduct2_0_split -> InnerProduct2_InnerProduct2_0_split_1
I0328 15:51:04.618918 19899 net.cpp:122] Setting up InnerProduct2_InnerProduct2_0_split
I0328 15:51:04.618926 19899 net.cpp:129] Top shape: 100 10 (1000)
I0328 15:51:04.618929 19899 net.cpp:129] Top shape: 100 10 (1000)
I0328 15:51:04.618932 19899 net.cpp:137] Memory required for data: 8714000
I0328 15:51:04.618937 19899 layer_factory.hpp:77] Creating layer SoftmaxWithLoss1
I0328 15:51:04.618942 19899 net.cpp:84] Creating Layer SoftmaxWithLoss1
I0328 15:51:04.618945 19899 net.cpp:406] SoftmaxWithLoss1 <- InnerProduct2_InnerProduct2_0_split_0
I0328 15:51:04.618950 19899 net.cpp:406] SoftmaxWithLoss1 <- ImageData2_ImageData1_1_split_0
…
